week_08/RAGEN_STARPO/models/best_agent.pth (torch, 637429 bytes, 14 tensors)

embedding.weight f4 [28, 64]
00000000: d74b 59c0 880d 2ac0 7991 af3f 8f4d 79bf
00000010: d0f8 09bf 1275 b4be f832 6abf 127d 123e
00000020: 74f3 73be 5b33 3dbf 35b9 363f 217e 823f
00000030: ece3 133f d9b5 833f 9aa2 47bf a91b 783e
00000040: 928f 1bbf eff9 f5bd 690f c6bf 66d8 86bf
00000050: 9e3a 5e3f 13f7 0e3f b929 3dbf 5737 60bd
00000060: 2260 b73e 6b7f d9bf 9254 df3f ef9f cb3f
00000070: 4a54 a93f 07e4 eabe d8cc 9f3f b6c3 7f3e
00000080: 0e5d 9dbf 3acd 5d3f 662c ef3e 90cb b43d
00000090: 3085 c13e fe81 8bbf 3b9c ca3f ed07 153f
000000a0: 1960 c63e 5d1d d1bd f23e a5bd a326 803d
000000b0: 4511 6f3f 9e47 373f a453 f9be 1331 a93d
000000c0: 4885 0dc0 46f5 5cbf a4ba 24bf 5d4d 78bf
000000d0: c37a 983f e726 c73f cdf4 e1be 7737 adbf
000000e0: b755 ac3f 5179 ad3e 8508 3fc0 41bf 43bf
000000f0: e078 a3bf fe38 94bf 61f0 b13f 1b33 803f
00000100: f78e d1be 9939 bf3f 62cb 313f b828 8f3f
00000110: fff9 aa3f 485a 893f 802c 74bc 8084 3b3f
00000120: ca65 363e 65f8 14bf 4623 86bf f003 0dbf
00000130: 82ba da3e d892 f8bf ee71 03bf 5d8a 20c0
00000140: f3bb 88be 2a43 c83e 30f6 ae3e 9700 d9bf
00000150: 4cb4 a5bf 1864 1abf fe49 4dbd 5666 463f
00000160: 1dd4 2e3e 9072 0ebf e365 a9bf a6df b9bf
00000170: 5bcb 65be e028 90bf 5a3b 75bf d127 8fbe
00000180: 03b7 0a40 5c06 b03f 2a63 4c3f a749 3fbf
00000190: c213 003f 9b94 2bbe 5121 7c3f 6d9f d3be
000001a0: 25d5 ac3f 0768 ab3e 9af2 38bf 50d0 5d3f
000001b0: dfc1 883f 52c3 653f 5d6e 583f bbeb bcbf
000001c0: ff14 8fbf 0fbf e73f 4fb2 71bf 5ec8 8fbf
000001d0: a76d 573f 33c1 32bf 9eca 6fbf fac2 5ebe
000001e0: 167d 14bc e5f8 8e3f f19e b2be e9c0 5d3f
000001f0: 0126 38bb 26d7 33be a55e 203f 431b 1a3f
00000200: 0e58 c23f abd0 023f 17a3 d03f 9fae 46bf
00000210: d305 8abd 238a 8c3e 820b 973e f08e 1cbf
00000220: 454a bd3f 2141 ad3f 715f 7a3f 4ed9 da3e
00000230: 757a 333e 72d5 ff3e a0e5 973e e94e 63bf
00000240: 53c3 6fbf 5001 fc3e d12c ae3e 8368 67be
00000250: f124 5e3f 5184 02bf 321a 013e 50b8 02c0
00000260: 8e37 be3f 7984 44be d28d 8cbf ddf9 cfbf
00000270: 5816 31bd d915 783d 5f42 d7bf f8f6 df3d
00000280: dd98 f03e c5b5 62be f2b0 dabe c5c2 cfbf
00000290: 78ae 27bf 59be 33bf 56d2 933f 0786 023f
000002a0: 3e07 16bf 439b 7bbf af84 3cc0 4378 1d3f
000002b0: e895 fa3e 47f0 5a3d d80d 513f 7bed 59bf
000002c0: 7ac2 cc3e 4e52 bd3f 9460 d7be 1b9e b73e
000002d0: 0c9b 483f cf1d 80bf 7dcf 49bd b653 2dbf
000002e0: d511 57bf d160 9c3e 9d7d b23f ffa0 8f3f
000002f0: 5df1 e43e d25a 9fbe 22bb e7bd 7d19 0d3f
00000300: c5bd 65bf 340c c7be 3a46 85bf 7ac9 dc3e
00000310: 0257 74be 1a79 ad3e 16d6 30bf 16e6 823f
00000320: 16fa 51bf 236a 133f 56fd 863f 5335 d23e
00000330: 3dbf 96bf 4829 4b3e eaf8 d7be 8fef bf3d
00000340: a845 cdbd ce76 0d3f 0edd 403f d6ef 2abe
00000350: e1b4 d8be fbc4 3bbf 70e0 56bf 7486 0d3e
00000360: 8b26 4a3e 77e5 5abf afc7 a6bf c3de 48be
00000370: 7512 ba3f 4026 a43f 3dc0 3e3e 4aeb 463f
00000380: 16c4 0bc0 b45b 78bf 08cf 1540 a35d dd3e
00000390: b337 413f 44ec d7bf 57d1 d7bf 300e 16bf
000003a0: 3b43 0a40 f52f c43f 34c4 853f 2094 88bf
000003b0: 2b6c 53bd e7fe 90be 3dc6 b63e 2862 78bf
000003c0: 9d00 493f 3d4d 803e 5a9c 14bf 8cb2 00c0
000003d0: f2df 92be 82e3 0640 9c43 643f f272 8f3d
000003e0: 4f28 5cbf a007 29bf 0368 d13e b38e fe3e
000003f0: fde8 bcbd d107 0e3e 26e1 b6be 2539 d0be
-3.395254 -2.657076 1.371627 -0.9738397 -0.5389528 -0.35245568 -0.9148402 0.14305523
-0.23823339 -0.7390649 0.71376354 1.0194741 0.57769656 1.028987 -0.77982485 0.24229302
-0.60765946 -0.12010562 -1.5473453 -1.053479 0.8680819 0.55845755 -0.7389179 -0.054740276
0.3581553 -1.699201 1.7447684 1.5908183 1.3228848 -0.45877096 1.2484388 0.24977002
-1.2294023 0.86641276 0.4671356 0.08827889 0.37796926 -1.0899045 1.5828928 0.5821522
0.38745192 -0.10210679 -0.080686465 0.06257369 0.93385726 0.71593654 -0.48696625 0.08261313
-2.2112598 -0.8631176 -0.6434729 -0.96993047 1.1912464 1.5558747 -0.4413208 -1.3532552
1.3463658 0.3388162 -2.984895 -0.76463705 -1.2771263 -1.1579893 1.3901483 1.0015596
-0.40929386 1.4939452 0.6945096 1.1184301 1.3357543 1.0730677 -0.014903188 0.73249054
0.17812267 -0.5819152 -1.0479515 -0.55084133 0.4272042 -1.9419813 -0.5134572 -2.508445
-0.26705894 0.39113742 0.341722 -1.6953305 -1.2945647 -0.6030898 -0.050119393 0.774999
0.17073102 -0.5564356 -1.3234218 -1.4521377 -0.22440855 -1.1262474 -0.9579369 -0.27960065
2.1674201 1.3751941 0.7983881 -0.7472176 0.5003015 -0.16755907 0.98488337 -0.4133257
1.3502547 0.33477804 -0.7224518 0.86645985 1.0684165 0.8975116 0.845434 -1.4759439
-1.1178282 1.8105181 -0.944127 -1.1233022 0.8415169 -0.6982605 -0.93668544 -0.21754065
-0.009063026 1.1169707 -0.34886888 0.8662248 -0.0028098824 -0.17562541 0.62644416 0.6019785
1.5183122 0.5109965 1.6299771 -0.776102 -0.06739392 0.2744914 0.29500967 -0.61155605
1.478829 1.3535501 0.9780188 0.42743915 0.17527182 0.49967533 0.29667377 -0.8879228
-0.93657416 0.4921975 0.34018567 -0.22598462 0.8677512 -0.5098315 0.12607649 -2.0424995
1.4860704 -0.1919116 -1.098078 -1.6248127 -0.0432342 0.06056771 -1.681713 0.109357774
0.46991625 -0.22139652 -0.42713124 -1.6231314 -0.65500593 -0.7021232 1.1548564 0.5098576
-0.586048 -0.98283786 -2.9455984 0.6151163 0.48942494 0.053451803 0.8166175 -0.8512799
0.39992124 1.4790742 -0.4206587 0.35862812 0.7836158 -1.0009097 -0.049270142 -0.6770586
-0.84011585 0.30542615 1.3944584 1.1221007 0.44715396 -0.31123978 -0.113149896 0.5511702
-0.8974269 -0.38876498 -1.0412056 0.43122464 -0.23861316 0.33881456 -0.6907667 1.0226467
-0.82022226 0.57583827 1.0546062 0.41056308 -1.1777111 0.19839966 -0.42182094 0.09371864
-0.100230515 0.55259407 0.753373 -0.16693053 -0.423255 -0.73347443 -0.83936214 0.13820821
0.19741265 -0.85506386 -1.3029689 -0.19616227 1.4536883 1.2824173 0.1862802 0.7770277
-2.1838431 -0.9701493 2.3407612 0.43235502 0.75475615 -1.6868978 -1.686076 -0.586154
2.1603534 1.5327135 1.0450501 -1.0670204 -0.05161683 -0.28319475 0.3569812 -0.97024775
0.7851656 0.25058928 -0.58051074 -2.0108976 -0.28686482 2.107636 0.89165664 0.07004346
-0.85999006 -0.6602726 0.40899667 0.49718246 -0.092241265 0.13870169 -0.3571865 -0.40668598

lstm.weight_ih_l0 f4 [512, 64]
00000000: efb5 a93d c50a 5d3d 590c 8c3b 3596 85bd
00000010: 6c2c 42bd 1440 99bb 87a6 29bd 02da 843d
00000020: a853 a43d 9c96 a2bc ba18 303d 7d17 c2bc
00000030: 6960 7f3d 4040 68bd 7baf 663c a94a 86bd
00000040: e3f7 a1bd 509f 4dbd c9fd 773d 4d5e ae3d
00000050: af4f 5ebd 7244 4a3d 161d 2fbd 52d7 59bd
00000060: 624c 923b 0e12 503d d164 7a3d 4cd0 2d3d
00000070: 6443 90bd f94b 643d 851b d5bc c8e4 96bd
00000080: f1ce 863c bee5 0c3d 2df7 a73d 9ea0 163d
00000090: a64c 2c3d b0bf 993c d283 5c3c 1620 4b3d
000000a0: a222 653c 32c0 2c3d d2d2 323c d4c9 8ebd
000000b0: 9acf 463b fb84 903c f4a7 b5bc af7a 56bd
000000c0: d735 9f3d 8161 82bb e297 9c3d 2583 10bb
000000d0: 64aa 8fbd 3c2c 473d b489 053c 46c4 c23c
000000e0: df82 7fbb a08d 72bc 4dcb 8fbd 4d45 263d
000000f0: 529b ab3b cccc 97bd 5237 abbd 0b64 403d
00000100: 0b95 48bc 2c6a 173c a623 aa3d aa87 e2bc
00000110: 5824 0cbd 9be7 81bc 8336 eb3c 11c2 e9b9
00000120: db75 a6bc f5ea a13d a2a3 cd3c aeab a73c
00000130: 7784 73bc 5796 5cbd ace3 9c3d 4640 95bd
00000140: 531d 883d b488 7d3d 21c3 6cbd 7217 7dbd
00000150: 74b6 7cbd f3ae 183d 3045 8b39 bd22 cbbc
00000160: 2d94 c93c c718 e1bb 1bc1 89bd 374e 8dbd
00000170: b7b3 8a3d bb9e 53bc 4960 09bd 29bd 983c
00000180: 6f44 503d db9d a0bd 6df0 5b3d f964 76bd
00000190: 0c12 883d 3f39 4e3d 98c0 5c3c 576c 67bd
000001a0: 4ac4 16bd 9701 2bbd e8b7 7e3d 0818 9f3d
000001b0: 61ae 943d e3d9 ac3d e7e1 523d 81d4 5abd
000001c0: 3c35 a9bd b113 6dbd 964b aebd 7e73 8b3d
000001d0: e0c9 60bd 980a 94bd 35f0 9a3d b0d3 473d
000001e0: 1493 95bd ab8b 3dbd 1a87 8d3d 63c5 5fbd
000001f0: 15e1 863c aee4 11bd 52d5 3dbc dc84 913c
00000200: a877 98bd 50a1 2bbd e6d1 87bd 8e1b aa3c
00000210: ef1f 65ba cb18 913d 6776 06bd f0ba 9cbd
00000220: 858d c639 ac5b ccbc 6bea 2e3d 0dff 9d3d
00000230: 9a95 fdbc 46d0 a33c 5c72 a1bd 1426 88bc
00000240: b205 893d a2fb f0bc d119 2a3c 6822 773d
00000250: 9a47 3b3d 233f 26bc 1825 f0bb 6452 903d
00000260: a09c ebbc 6e23 933d 2e82 40bd 6865 b3bd
00000270: abee 6cbd fbc7 a1bc 9f87 f53c 6344 91bd
00000280: 33d4 a63d cff5 593d 16e0 03bd 2b0f 323d
00000290: d126 833d 43b4 1a3c adb0 5cbd 5501 823d
000002a0: 5869 d5bc 4312 5bbc ed29 b7bb 5fff 64bd
000002b0: f43c 453d 18c3 653d 713c ba3d 0c54 84bd
000002c0: 3e44 5b3d 690d 923d 3bb3 0fbd db24 7b3d
000002d0: 703c 3abc 2115 32bd 489e 99bd acfa e93c
000002e0: 06fd ed3c 7b24 8dbd 26f0 9b3d f757 c03d
000002f0: a454 71bc 5a84 86bc ad53 62bd a6d3 b93c
00000300: 87bb 39bc d86a 1e3c 6cf7 6f3d 1538 6f3d
00000310: f97a 04bd 6bd8 8d3d 7158 4e3d bd80 263d
00000320: 70ce 5e3c be4a ef3b b05d 38bd ee0f 123d
00000330: 1222 d4bc 6d8b 913d 01fb 913b d27a bc3c
00000340: 7858 9f3c 8812 a63d c011 013d 7108 7d3d
00000350: 5040 0eba 2d90 253d bb10 a6bd 143b 78bc
00000360: c334 963d f038 31bd ec7a 08bd 00fc a8bd
00000370: 51f9 763d 8e7b 5cbd ae9b 943b 479b a63d
00000380: 9279 753d cf91 7c3d de47 07bc 7f4b d1bc
00000390: 58d7 9abd 847b 9d3c fa14 3b3c f6b3 0c3c
000003a0: 4062 09bb e795 503d bd33 1fbb 2037 893d
000003b0: 16a2 eabc 5691 fcbc e65a ad3d 186b 98bd
000003c0: d74b 473d bb5e c03c 1556 62bd 8d8c b03d
000003d0: 619c 30bc f632 273d 78a3 69bd 427e 8d3d
000003e0: 0d22 2b3d e194 f3bc c3b6 673d 9590 183d
000003f0: a270 38bc f12e 37bd 2a60 d93b ccb3 473c
0.08286654 0.05396535 0.004273933 -0.0652279 -0.047405645 -0.004676828 -0.04141858 0.06486894
0.08023769 -0.019847207 0.04299233 -0.02369284 0.062347803 -0.0567019 0.014079924 -0.06557209
-0.07908609 -0.05020076 0.060544763 0.0851408 -0.05427521 0.04938168 -0.042752348 -0.05318386
0.004464672 0.05079847 0.061131302 0.042434976 -0.07044104 0.055736516 -0.026014099 -0.07367855
0.0164561 0.034398787 0.08201442 0.03677427 0.042065285 0.018768162 0.013459163 0.049591146
0.013985308 0.04217548 0.010914521 -0.069720894 0.0030336143 0.017641535 -0.022174813 -0.052363094
0.07773941 -0.0039789085 0.07646157 -0.0022050824 -0.07014921 0.04862617 0.008150507 0.023775231
-0.0038987917 -0.014804274 -0.070211984 0.040593434 0.0052370215 -0.07412109 -0.08360161 0.04697041
-0.012242566 0.009241622 0.08307581 -0.02765258 -0.034214348 -0.015857508 0.028712517 -0.00044585814
-0.02031987 0.079061426 0.02510244 0.020467605 -0.014863125 -0.053854313 0.076606125 -0.0728765
0.06646218 0.06189795 -0.057803277 -0.061789937 -0.06169744 0.03727622 0.00026563695 -0.024796838
0.024606789 -0.006869409 -0.06726285 -0.06899684 0.06772559 -0.012916262 -0.03353909 0.018644886
0.050846513 -0.078426085 0.053696085 -0.06015489 0.06644067 0.050347563 0.013473652 -0.056499805
-0.03680829 -0.041749563 0.062187105 0.077682555 0.07259823 0.08439996 0.05148497 -0.053425316
-0.08262107 -0.057880107 -0.085105106 0.06809138 -0.054880023 -0.07228583 0.07565347 0.048785865
-0.073034436 -0.046275776 0.06910534 -0.054631602 0.01646475 -0.035618477 -0.011586504 0.017763548
-0.074446976 -0.041901886 -0.06631832 0.020765092 -0.0008740415 0.07084807 -0.03282776 -0.07652843
0.00037870943 -0.024946056 0.042704027 0.07714663 -0.030955125 0.019996773 -0.078831404 -0.01661972
0.066905394 -0.029416863 0.010382132 0.060335547 0.04572258 -0.010146889 -0.0073286407 0.07046965
-0.028761208 0.07184492 -0.04699915 -0.08759576 -0.0578448 -0.019748678 0.029971896 -0.07093122
0.081459425 0.053212937 -0.032196127 0.043471497 0.06403888 0.009442392 -0.05387943 0.0634791
-0.026051208 -0.013371053 -0.0055897147 -0.055907603 0.048153833 0.05609426 0.090935595 -0.06461343
0.053531878 0.07131464 -0.035083037 0.061314445 -0.0113669485 -0.04347718 -0.07500893 0.028561912
0.029051315 -0.06891724 0.07614164 0.09391778 -0.014729653 -0.016420532 -0.05525558 0.02268393
-0.011336214 0.009669028 0.05858557 0.058403093 -0.03234384 0.06926044 0.050377313 0.04065012
0.013599023 0.007302611 -0.045011222 0.035659723 -0.025895152 0.071066715 0.004454971 0.023007784
0.019451365 0.08109003 0.03151107 0.06177563 -0.00054264534 0.0404207 -0.0810866 -0.015150804
0.07334282 -0.04326719 -0.033320352 -0.0825119 0.06029636 -0.05382877 0.00453516 0.081350856
0.05993039 0.06166249 -0.008256881 -0.025548695 -0.07560605 0.019223936 0.011418575 0.008587828
-0.0020963103 0.050924208 -0.0024292313 0.066999674 -0.028641742 -0.03083102 0.08464603 -0.074423015
0.04865631 0.023482671 -0.055257875 0.08620558 -0.010779471 0.040820085 -0.05704066 0.069088474
0.04178052 -0.029734077 0.05657078 0.03724726 -0.0112573225 -0.0447225 0.006633778 0.012188863

lstm.weight_hh_l0 f4 [512, 128]
00000000: 55d1 0cbd 8921 6f3d 1d95 853d 9237 80bd
00000010: 8a03 c7bc 330e 1c3d dd19 ca3c 78ed 0e3b
00000020: 13c4 8cbc fe93 413d 5663 0a3b b8ed 0bbd
00000030: 5d42 a7bd bf69 35bd f45e 91bd 9cd7 303d
00000040: 85e3 313d 3765 983d c3b3 253d 270d 9fbd
00000050: 1a10 89bc 1798 a2bb ac95 abbd 3292 873d
00000060: 5f79 a23c 79a7 64bd 9aaa 80bd 139d b0bd
00000070: f3fd 4dbc 818f d7bb d775 e13c 7aed bdbc
00000080: 8a6f 573d 3d07 d3bc e0d1 26bd 1d46 a13c
00000090: a4df 9c3c 90f3 f2bb f6ed 883d 4e0e a63d
000000a0: 1d43 9e3d c773 d9bc c0e1 96bd fa47 b5bd
000000b0: cc3f 70bb 3513 a43d acb5 d5ba cb02 a13c
000000c0: fc3a a23d d40d 98bd 6496 f83c 59fb a7bd
000000d0: 9509 a23c 4aee a63c 1a01 adbd 3e7c a83d
000000e0: 3d5f 8ebc a828 fbbc 3850 98bd 305f 69bd
000000f0: fe7d 643d 0655 4c3d dd91 07bd 14e5 5bbc
00000100: bc00 b43c 2fcb 2b3c 121c d2bc ed97 4f3d
00000110: 9c5a 8d3d ce9b 1c3c 7ea5 46bd 10f8 a6bc
00000120: 0684 afbc 3087 83bd 5de4 01bd f5a5 1d3d
00000130: 670a 6a3d de30 a83d 3e34 4b3d e4ec 833d
00000140: eb6f 1e3c fa6d 8cbd 687a 45bd b459 833d
00000150: fce1 96bc bd6d 05bd de1e 183d 2e51 243b
00000160: 5d87 abbc 241e 333c 84e1 373c 0cd7 03bd
00000170: 58ce 6cbc af26 853b ae16 a73c 5597 f33c
00000180: c1a1 7bbc ece0 3ebd 58d2 5c3d a5a5 b6bd
00000190: ddf0 34bc f8b4 c0bc 5e5d 8d3c c0b0 a73c
000001a0: de1a 93bd 08be 70bd 3451 783d 81ec 573d
000001b0: 3d3d 9d3d dffb 2ebd 2722 35bd 6054 ad3c
000001c0: 368d 8e3d 6d04 6e3d 2083 fc3c c677 3e3d
000001d0: b5fa bb3c 9f1d 24bd 612b 6d3c 0423 75bd
000001e0: 04fd 4c3d 1648 a83d c248 933d c4fb e63c
000001f0: 110d 9f3d de70 5d3d 198a 443d f817 a3bd
00000200: ae21 703d 2fab 22bd 069b fe3c b207 20bd
00000210: 7d17 89bd 5937 853d 7c18 67bd 73e2 82bc
00000220: 31f1 3c3d 3ba1 46b9 59fe 3ebc 1158 64bd
00000230: 69c8 c63c e4cb 84bd 0959 0c3c 79b0 51bd
00000240: c536 be3c 8d7f 503c 7d5f 48bd 6cbf 7ebd
00000250: 8310 44bd 025c f23c 03ef a0bc 667b 79bd
00000260: acad a4bd 2d55 7fbd 70b9 20bc c4b1 bf3c
00000270: 6768 f1bc 392c 483d 6e2f ab3d 50c4 803d
00000280: e64f 253d 69d9 953c 06ce 9ebd 72f2 30bd
00000290: c479 07bc 4945 d0bc 4bcf 0b3d 114b afbd
000002a0: 8d6f 87bd 6f03 2d3c 9af1 193d 79b2 933d
000002b0: 4a7d 633d 0eef 493c 67a2 a23d 9aa4 943d
000002c0: a579 acbd 1fa0 94bd d361 f3bc da8a 41bd
000002d0: 5524 36bd f83c 093d e300 b6bd 468a 9ebd
000002e0: 7b44 9fbd 5e3a 2c3d e70f 903b 7d6c 2f3d
000002f0: 1d03 6e3c 6f32 93bd 4c3d e73b bfe7 9f3d
00000300: c7bb e8bc b5ce c33c 1a72 5cbd 409e bdbc
00000310: 8012 693d 9394 1cbc cc15 4bbd d63b 6b3d
00000320: 4f8c a0bc e96c ebbc 16e4 243d 28f9 683c
00000330: acf1 963c 498f 0ebc c1aa 27bd 7547 9bbd
00000340: 02d4 dc3b 3c37 283d 10af 16bd cc46 a4bc
00000350: 4f2f 0abd 6750 803d f70b 6c3d 3627 753d
00000360: 2ebc 203d 8603 523d 0ed5 393d 9103 b4bb
00000370: 9474 a8bd 31d1 87bc a229 6abd 87ad 0dbd
00000380: ac7e 9e3d 8949 673d 4f82 b63c 15f0 033d
00000390: cb66 aabd 1067 a83d 6e33 96bc 10ca 173d
000003a0: 035d 2cbd 8164 7a3c 249e 9e3c 0fce 753b
000003b0: 6d92 b3bd d157 b73c ed57 43bd 4317 3abd
000003c0: a623 173c edd9 85bc 554c 08bd 0162 643d
000003d0: 8384 b13c 5e90 49bd c7b9 5a3d 795f 9bbd
000003e0: cffc 40bd deac 06bd 2ce9 b0bd 8b08 d03c
000003f0: e037 d23c 8203 983a f6a1 053d cbb3 db3b
-0.034379322 0.05838159 0.06522582 -0.06260599 -0.02429368 0.03809948 0.024670536 0.0021809023
-0.01718334 0.047260277 0.0021116338 -0.034162253 -0.08166955 -0.0442903 -0.07098189 0.04317437
0.04342987 0.0744118 0.040454637 -0.077661805 -0.01673131 -0.004961978 -0.08378157 0.066196814
0.019833265 -0.055823777 -0.0628254 -0.086237095 -0.012572753 -0.0065783863 0.02752201 -0.023184527
0.052596606 -0.025760287 -0.040727496 0.019686753 0.019149609 -0.007414289 0.066860124 0.08108197
0.077276446 -0.026544465 -0.07367277 -0.08851619 -0.003665912 0.08011476 -0.0016304753 0.019654652
0.079214066 -0.074245125 0.03034515 -0.08202238 0.01977996 0.020377297 -0.08447476 0.08226822
-0.017379398 -0.030659035 -0.074371755 -0.056975543 0.055784218 0.049885772 -0.03309809 -0.013421316
0.021973006 0.010485454 -0.02564815 0.050681997 0.06902048 0.009558631 -0.04849767 -0.020381957
-0.021425258 -0.06422269 -0.031711925 0.038488347 0.057138827 0.08212446 0.04961037 0.06441668
0.009670238 -0.06856914 -0.04821244 0.06413594 -0.018418305 -0.032575358 0.037138812 0.00250728
-0.02093857 0.010932479 0.011223201 -0.032187507 -0.014453493 0.0040634493 0.020396557 0.029735247
-0.015358389 -0.04660122 0.053911537 -0.08918313 -0.011043754 -0.023523793 0.017256435 0.020470023
-0.07182859 -0.058774978 0.060624316 0.052715782 0.07677696 -0.04272067 -0.044222023 0.021158397
0.069605276 0.05810969 0.030824244 0.046500944 0.022946695 -0.04006731 0.014475674 -0.059847847
0.050045982 0.08216874 0.07191612 0.028196223 0.07766164 0.054062717 0.047983263 -0.07963556
0.05862587 -0.039714035 0.03107978 -0.03906984 -0.06693933 0.06504697 -0.056419834 -0.01597712
0.046128456 -0.00018942814 -0.011657321 -0.05574805 0.024265485 -0.064842016 0.0085661495 -0.051193688
0.023219476 0.012725723 -0.04891919 -0.062194273 -0.04786731 0.029584888 -0.01964522 -0.060908698
-0.08040938 -0.06233709 -0.009809837 0.023400195 -0.029468728 0.0488703 0.08358656 0.06287444
0.0403594 0.018292146 -0.077541396 -0.043199964 -0.008268777 -0.025423663 0.034133237 -0.0855924
-0.066130735 0.010559901 0.037583925 0.07211775 0.055539407 0.0123250615 0.07941132 0.07257958
-0.08421639 -0.07257103 -0.029709732 -0.04725156 -0.044468243 0.03350541 -0.08886888 -0.07741217
-0.077767335 0.04204785 0.004396427 0.04282807 0.014527109 -0.07187354 0.0070568677 0.07807874
-0.028409852 0.023902277 -0.053819753 -0.023146749 0.05690241 -0.009556907 -0.049581334 0.05743011
-0.019598154 -0.028738456 0.040256582 0.01421956 0.018425785 -0.008701154 -0.040934328 -0.07581989
0.0067391405 0.0410683 -0.036788046 -0.02005329 -0.033736523 0.062653355 0.057628598 0.059851848
0.039241962 0.05127289 0.0453692 -0.005493589 -0.082253605 -0.016579242 -0.05716861 -0.034589317
0.077390045 0.056466613 0.022278933 0.032211382 -0.083203875 0.082227826 -0.01833507 0.037057936
-0.04208089 0.015282751 0.019362517 0.0037506854 -0.08768163 0.022380741 -0.047691274 -0.04543234
0.009224808 -0.016339267 -0.03327592 0.055757526 0.021669632 -0.049209945 0.053399827 -0.07586569
-0.047116097 -0.032879703 -0.08638224 0.025394699 0.025661409 0.0011597725 0.03262516 0.0067047826

lstm.bias_ih_l0 f4 [512]
00000000: 5a5d 6c3d 80ab 023d 25df 453d f8d1 da3c
00000010: 635b 0fbc 6b27 1fbd 722f 6bbc c76f 36bd
00000020: 2f55 9e3c 8078 71bc 4308 35bd ec09 47bd
00000030: 8fda 71bc 1c87 913d 79c6 9cbd 282b 8cbd
00000040: 3883 4e3b f4ea 15bb 521f 88bd 7271 c23d
00000050: c01e 7f3b 0b66 a33c 639a 233d 995a d1bc
00000060: d4a2 8f3d 8cce 7f3c 1804 55bd 9324 7c3d
00000070: 8630 0bbd bac7 a0bd 044f 85bd 7a8e 953d
00000080: b9a1 f73c 0cba 833d 42a2 9abc d84f 8a3c
00000090: e42c 963d bb1f 443c 07aa 81bd 6114 e03c
000000a0: e991 0fbd 9fcc 8dbc 5fbe 53bd 9bf1 81bd
000000b0: 7280 403d 1569 623d 762b 7e3c 285c 88bb
000000c0: d91b 06bd c793 453d 3e4f b33d b602 fa3c
000000d0: c758 403c 91d8 f43c 375f 6d3d 7f19 46bd
000000e0: f295 c03b 5300 6e3c a64c 3a3c 0c87 c83c
000000f0: bf10 223d 27f1 b23d c6e8 ad3d c440 b8bc
00000100: 0186 2a3d 9b26 77bc 2c6b b2bd f0a7 5d3d
00000110: 3d8e b2bc bd86 6dbd 23cd 38bd da55 d93a
00000120: 57d0 14ba 892e ae3d 41d2 9e3d e8aa fa3c
00000130: 5ca2 c03d 8590 a0bd 1e9c ac3c cd79 8f3d
00000140: c550 7c3d 3bf8 843d c854 3e3d c2ed 083d
00000150: 0356 723b a8c6 d23c fc02 a4bb b68a 9fbb
00000160: 7e31 aebd 9872 543c edc3 1abd 0c95 a63d
00000170: 2318 c5bd 95cd e6bc 41da b73c d10d 373c
00000180: cd86 983c 9607 9b3c f825 a73c 27c2 083d
00000190: dcc0 893d df7a 4c3d 95d3 963d ef8c b1bd
000001a0: d538 243d ece9 82bd 3ba7 4d3d a230 9dba
000001b0: a44b 62bb 53aa 6cbd 2785 c4bc 407b 573d
000001c0: 6d39 9cbd a539 903d fa52 45bd 9825 4fbc
000001d0: f4d6 5dbd 9609 36bd 016c 6bbd a37b 3e3d
000001e0: ff3a 383c 59f7 3bbd fbea 6f3d 3014 83bc
000001f0: bd6b 1f3d fa9e 033b d433 c8bb fb24 63bd
00000200: 0ae3 f73c dc78 57bd b8eb 073d e221 23bc
00000210: 93b5 d1bc 2c6b 443d cede 04bc e032 b0bd
00000220: eff9 e83c dddb 203c 889d 893d 544e 26bd
00000230: c470 5a3b bd96 773d cb8f 5fbd f1a4 fbbb
00000240: 2e95 01bd dfcc 903c cd7d 4cbc 6806 85bd
00000250: 5857 b93d c2c0 fb3c 9bea cebb 166f 61bd
00000260: 71a7 79bd 290f 353d 3ad0 e43c 8f50 793d
00000270: 5435 9b3d 7670 733c 47b7 143d a7e7 39bd
00000280: 3381 8cbd b2f2 5abc e5ef 203c 65be 57bd
00000290: 3b0b a9bb e2ae 14bd f511 61bc f2b2 39bd
000002a0: bd8d 803c eddf d83b fa5a e4bc 8c1b 99bd
000002b0: a630 53bd 87e4 2abd e8fe e93b aabe 94bd
000002c0: 9518 93bc cee5 20bd ee68 a7bd 4fdf 5fbc
000002d0: 1133 8fb9 63bd 9d3d 8831 673c 763c 8d3d
000002e0: f6f3 0fbd 3cb8 a13d f37f 16bd 8d2d 7cbd
000002f0: e43b a43d 59b5 8dbd 872c afbb 2417 89bd
00000300: 2b07 5cbc 958b 8fbd 2307 c33c ab3b 973d
00000310: 3263 e7bc a42f 5fbd e712 3bbd 8874 9b3d
00000320: 80ce b4bd 0b35 c7bb 4513 48bd d706 5a3c
00000330: fd8d 0f3d 9059 ab3d ec33 77bd 9bc7 6dbd
00000340: a863 a0bd b9ec 90bd 630e aa3c 1185 a8bd
00000350: d58f 6dbd e33c 89bd a852 c0bd a909 b33d
00000360: f547 a3bd c7c0 223d 4fac a1bd bdd6 94bd
00000370: 32fb fbbc 18f3 85bd 7f0f 4d3d c7c0 823d
00000380: c069 1f3d 0f89 f1b9 85bf ee3c cd0f 703c
00000390: a5a6 123d 596a a8bd 3df5 94bd df55 583b
000003a0: 66e6 89bd 2777 b93c c80c 66bd b003 17bb
000003b0: 6995 ac3d 52e5 9d3d f56f aabd 8723 0d3d
000003c0: 97fd 593d 1c2a 38bd b1b5 aabb 2281 9d38
000003d0: fdc4 3d3d 5cf2 a1bd 17db 133a 65e5 2d3d
000003e0: 1ef2 913d acc0 a23b 62e0 42bd 186c 4ebd
000003f0: 455a 8f3d a60f 26bd e138 883b 1fd9 0abd
0.057706214 0.031901836 0.04830851 0.026711449 -0.008749816 -0.03885595 -0.014354574 -0.044540193
0.019327728 -0.014738202 -0.044197332 -0.048593447 -0.014761581 0.07105848 -0.07655043 -0.06844169
0.0031511318 -0.0022875639 -0.06646599 0.09494294 0.003892824 0.019946119 0.039942157 -0.025555896
0.07013479 0.015613209 -0.052005857 0.061558317 -0.033981822 -0.07850595 -0.06509212 0.07302566
0.030228483 0.0643197 -0.018876199 0.016883776 0.07332781 0.011970456 -0.06331258 0.027353467
-0.03505126 -0.017309485 -0.051695224 -0.06344911 0.046997495 0.055275995 0.015513292 -0.0041613765
-0.0327414 0.048236635 0.087553486 0.03051887 0.011739916 0.029888423 0.057952132 -0.04836416
0.00587725 0.0145264445 0.0113708135 0.024478458 0.03956675 0.087374024 0.08491664 -0.02249182
0.041631702 -0.015084888 -0.08711848 0.054115236 -0.02179634 -0.057989825 -0.04511751 0.0016581372
-0.0005676797 0.085049696 0.077549465 0.030599073 0.094059676 -0.07840065 0.021070536 0.070056535
0.061600465 0.06492659 0.046467572 0.03342987 0.0036977537 0.025729492 -0.0050052386 -0.0048688306
-0.08505534 0.012966774 -0.037784506 0.08133897 -0.09623744 -0.028174201 0.022442939 0.011172728
0.018618966 0.018924516 0.020403847 0.033388283 0.06726238 0.049921867 0.07364575 -0.08669459
0.04009326 -0.06392273 0.05020831 -0.0011992643 -0.0034529949 -0.05777962 -0.023989273 0.052607775
-0.076281406 0.07042245 -0.048174836 -0.01264324 -0.054160073 -0.044442736 -0.057476047 0.046504628
0.0112445345 -0.045890186 0.058573704 -0.016000837 0.038921107 0.002008377 -0.006109694 -0.05545519
0.030259628 -0.052605495 0.033183783 -0.009956809 -0.025599277 0.04795377 -0.008109761 -0.08603454
0.02843949 0.0098180445 0.067195 -0.040602043 0.0033331374 0.06044649 -0.05458049 -0.0076795747
-0.03163641 0.017675815 -0.012481165 -0.064953625 0.090498626 0.030731563 -0.0063145882 -0.05503758
-0.0609507 0.04420391 0.027931321 0.060867842 0.07578531 0.014858356 0.0363076 -0.045386937
-0.0686058 -0.013363527 0.00982282 -0.05267181 -0.0051588095 -0.036299594 -0.013737191 -0.04533667
0.015692586 0.006618491 -0.027875412 -0.07475957 -0.051560067 -0.041721847 0.007140983 -0.07262929
-0.017956058 -0.03928166 -0.081743106 -0.013664081 -0.00027313133 0.07702138 0.01411093 0.06896298
-0.03514477 0.07896468 -0.036743116 -0.061566878 0.08019236 -0.06919355 -0.0053458842 -0.06693867
-0.013429443 -0.07009045 0.023807114 0.07384428 -0.028245542 -0.054488793 -0.045672324 0.07590586
-0.08828449 -0.0060793213 -0.0488465 0.013307295 0.03504752 0.08366692 -0.06035225 -0.058051687
-0.07831508 -0.07076401 0.020758813 -0.082285054 -0.057998497 -0.06701066 -0.093907654 0.08742077
-0.07972709 0.039734628 -0.078941934 -0.072675206 -0.030759428 -0.06540507 0.050063606 0.063844256
0.03891921 -0.0004606922 0.029144058 0.014652205 0.035803456 -0.08223409 -0.07273338 0.0033010168
-0.06733398 0.022639824 -0.056164533 -0.002304297 0.08426935 0.07709755 -0.08322135 0.03445771
0.053220358 -0.044962034 -0.0052096476 7.510396e-05 0.04633044 -0.079075545 0.0005640252 0.042455096
0.07126258 0.004966816 -0.04757727 -0.050396055 0.069996394 -0.040542267 0.004157171 -0.03389847

lstm.bias_hh_l0 f4 [512]
00000000: d9ec 02bd 2186 e4bc b35e 5e3c 2772 7bbd
00000010: a908 333d 190f 24bd 72cc 003d 407f 323b
00000020: f47a 213c d351 983d 6991 43bd c015 983d
00000030: 78b5 97bd 2ee7 9cbd c9d0 0d3c 4074 d93b
00000040: e64f 9d3d 14da 893c e747 9bbd 7691 7d3d
00000050: 579c 38bd 176c 1f3c 2245 983d 2642 483d
00000060: 3772 4fbd a77f 83bd d9f3 1a3d 47cb 983d
00000070: 37b6 acbc 6c19 a03d 1522 0a3c fc52 55ba
00000080: 62a0 9f3d 12b9 a53d 8daa 2bbd 6181 90bd
00000090: 163c 9dbd 7046 27bd d3f9 aebd 80dc 6dbd
000000a0: a284 7e3d 76ff be3d 9f45 84ba c991 9b3d
000000b0: 9271 96bc 7f92 b83d fa53 9ebd bc7f 493d
000000c0: 5e43 9dbd 1c71 adbd 4853 aabd 52c9 2f3d
000000d0: 3768 fe3c b0b7 a73d e28f 8bbd b703 bd3d
000000e0: 3c5a 75bd 6cdb 2abd b5a5 54bd 9823 353d
000000f0: 52ca 87bd e3fe 813a 247b fb3c fa51 903d
00000100: 9a61 5fbd fb2f e83c 6c9d 1c3d edfb d6bc
00000110: 2dc8 f03c b57a acbc 03d6 143d 8422 74bd
00000120: 0bde 173d b3f3 0fbd 0d79 36bc 83ff 47bd
00000130: 9e48 fcbc 4f9e aabd 2a69 5a3d 2a7d 8cbd
00000140: 133b 1dbd eba7 aabd bcc0 82bd e684 de3a
00000150: a221 ae3d 37ef 923d 5860 a6bd e987 b1bc
00000160: bc90 1ebd c3cc 843c 6ccc 513d c00c 963d
00000170: bc7c 203d f9b1 a0bd 6dfc 17bd cc4b a83d
00000180: f78a cbbb 5c0f a83d 84f6 c5bc 6646 073c
00000190: ae43 f5bb f4e2 72bd 326d 6dbc 0116 6aba
000001a0: 5805 8b3c a7c8 66bd fe12 b1bc e7d9 8a3c
000001b0: 05f8 c63c de68 48bc e8ab 80bc 7fdd a8bd
000001c0: ec29 72bc f896 76bd cc8e 913c b1de 6abd
000001d0: 357b 96bd f551 9fbd 2123 983d b354 813a
000001e0: fae4 803c 87b5 86bd e14a b33d 4bf7 cd3c
000001f0: 909d c3bc 9e62 95bd c15a e2bc e7ba 953d
00000200: c037 0a3d 1115 3e3d b0d9 a7bd 9623 ddbb
00000210: e670 e7bc 8f5a 04bc a114 203b 8000 a63c
00000220: 3cf5 9a3c a253 c83c 2e41 90ba 3c42 9abd
00000230: db31 07bd 77f1 723d 6dbb fe3c 24a7 4f3d
00000240: 6404 ba3c 41fd 42bc 863f 733d 5a4f 2f3a
00000250: 8767 1f3c f33f e53c ab40 283d 7d60 a0bd
00000260: 130a be3c f962 7abd 3c6b fb3c 1807 07bd
00000270: 72cd 31bd d882 94bd c435 9dbc d315 2fbd
00000280: 619b 4d3d faf0 023d 12bf 81bd dad4 033d
00000290: d2ba 5cbd 3b90 813d 27dd da3c 9a76 1cbd
000002a0: e365 e53c 0ab0 973d 461c 173c 3d2e d7bc
000002b0: 60e9 823c dd57 e73b e8b4 2a3d 76d9 683d
000002c0: 4ccb 503c 8faa ccbc b29c 173c 4110 18bc
000002d0: ccc3 723d 062d ab3c 768a f1bc df59 093d
000002e0: 681b 993d c475 0d3d 3021 a23d d28c babc
000002f0: de7c 7abd 2734 00bd d741 93bd 9b0a 7a3d
00000300: e36b 06bc 2530 73bc 3d2b 29bd 9b41 a1bd
00000310: 2e79 a13d a455 bd3c 5855 383d 1820 17bd
00000320: 4f9e 9ebd 48cf 36bc 75ed 923d 6503 093d
00000330: eec0 2d3d 0b90 a3bd 5d9e 4c3d 8dc0 a5bd
00000340: 113e c83c cd6b 9e3d 8c1a 223d 4651 353d
00000350: 44d3 0e3d 45b7 88bc a66c 69bd 0754 9fbc
00000360: 2c78 4f3d 6d80 393d 17ec b93a 6d03 323d
00000370: a693 8fbc 33f0 c93c 9c97 283c 6fc2 b23d
00000380: 60c7 04bc 60aa 87bd 7c5b 59bc a64f b63c
00000390: b810 11bd f129 57bd 9bdc 80bb bdb7 aabd
000003a0: 904a bd3d 9d30 a73d 411d 66bd 2d3f b1bc
000003b0: 2fe7 a33d e9f8 003d 699e 493c 8686 a43c
000003c0: a356 69bd f9e9 af3d b0fd 353c 8b09 16bd
000003d0: f71b afbd 0e6a 963d 7414 6ebc c5e6 6bbd
000003e0: bcde 8cbd a3dd e43b 197d 7bbd 446a ae3a
000003f0: cf52 953d afcc 44bd 1aad 173c a43d 363c
-0.031964157 -0.027895989 0.013572383 -0.06138816 0.04370943 -0.04005346 0.031444974 0.0027236491
0.009855974 0.07437482 -0.047746096 0.074260235 -0.07407659 -0.076612815 0.008655735 0.0066361725
0.07681255 0.01682762 -0.07582074 0.0619063 -0.045070972 0.0097303605 0.07435061 0.04889121
-0.050646033 -0.06420832 0.037830207 0.07460647 -0.02108298 0.07817349 0.008430977 -0.0008137671
0.077942625 0.0809194 -0.041910697 -0.07055927 -0.07677476 -0.04083866 -0.08543744 -0.058071613
0.062138207 0.09326069 -0.001009155 0.07596166 -0.018364701 0.09012317 -0.07730861 0.049194083
-0.07678865 -0.084688395 -0.08316666 0.042916603 0.031055553 0.081893325 -0.06814553 0.09229224
-0.059900507 -0.041713163 -0.051915843 0.044223398 -0.066303864 0.0009917881 0.030698366 0.07046886
-0.05453644 0.028343191 0.038236067 -0.026243174 0.029392326 -0.021054605 0.03633691 -0.05960323
0.03707699 -0.03514452 -0.011137259 -0.04882766 -0.030796345 -0.08330976 0.05332295 -0.06859811
-0.038386416 -0.08332809 -0.063844174 0.0016976863 0.08502509 0.07174533 -0.08123845 -0.021671252
-0.03871225 0.01621092 0.051220343 0.073266506 0.039181456 -0.078464456 -0.037105966 0.08217582
-0.0062116343 0.082060546 -0.0241654 0.00825653 -0.0074848747 -0.05929847 -0.014491366 -0.00089296704
0.016970322 -0.0563437 -0.021615501 0.016949607 0.024288187 -0.012232034 -0.015706971 -0.08245372
-0.014780503 -0.06020257 0.017768286 -0.05734128 -0.073477186 -0.07779304 0.07428575 0.0009867161
0.015734185 -0.06577592 0.087545164 0.025142333 -0.023878843 -0.072942 -0.027631165 0.073110394
0.033744574 0.04640681 -0.081958175 -0.006748627 -0.028252076 -0.0080782315 0.0024426358 0.02026391
0.018915765 0.024453942 -0.0011005753 -0.075321645 -0.03300653 0.05931231 0.031095231 0.050696507
0.022707172 -0.011901201 0.059386753 0.00066875445 0.009729273 0.027984595 0.041077297 -0.07830904
0.023198163 -0.061129544 0.030690782 -0.03296575 -0.04340882 -0.07251519 -0.019190677 -0.042745423
0.05019701 0.031968094 -0.06335272 0.032185413 -0.053889103 0.06326338 0.026716782 -0.038199045
0.028002685 0.07406624 0.0092230495 -0.026267165 0.015980422 0.0070600347 0.041676432 0.056848012
0.012743782 -0.024983672 0.009253668 -0.009281219 0.059268758 0.020895492 -0.029484969 0.033532973
0.074759305 0.03453614 0.07916486 -0.022772226 -0.06115424 -0.031299736 -0.07190292 0.06104527
-0.008204433 -0.0148430215 -0.041301 -0.078738414 0.07884441 0.023112126 0.045003265 -0.03689584
-0.07745039 -0.011157818 0.071741976 0.033450503 0.04242032 -0.079864584 0.049955714 -0.08093367
0.024443658 0.07735405 0.0395761 0.04426696 0.034869447 -0.016688952 -0.05698838 -0.019449247
0.050651714 0.045288492 0.001418474 0.0434603 -0.017526459 0.024650669 0.010290053 0.087284915
-0.008104175 -0.06624293 -0.0132664405 0.022254776 -0.035416335 -0.052530233 -0.003932548 -0.083358265
0.09242737 0.08163569 -0.056180242 -0.02163657 0.08003079 0.03148738 0.012305834 0.020083677
-0.05696739 0.085895486 0.011107847 -0.036630195 -0.08550256 0.07344447 -0.014531244 -0.057593126
-0.06878421 0.006984429 -0.0613986 0.0013306816 0.07291185 -0.048046764 0.009257579 0.011123095

layer_norm.weight f4 [128]
00000000: 42af 803f dcf5 803f 664b 7f3f 6839 803f
00000010: 4d57 823f 7c9d 813f 0b91 843f 7941 7f3f
00000020: fba6 803f ff42 843f f5fc 833f e52c 7f3f
00000030: ecdb 803f 535e 813f 5ca5 7f3f 930a 833f
00000040: f123 803f f0cb 7d3f 9bc2 823f c31d 853f
00000050: 3ac8 853f 42cb 7f3f c46d 843f 5ae8 7f3f
00000060: b9d5 853f 8683 7e3f 4877 7e3f b86f 813f
00000070: 83e7 843f af4b 803f 49a6 7e3f d3e8 833f
00000080: 5b94 7e3f 3f8e 813f 476e 833f 284e 7e3f
00000090: 3b28 7e3f 76e1 7e3f b274 803f 88c5 813f
000000a0: c376 833f f2d4 883f 8c78 843f 9b4d 853f
000000b0: 0ba3 853f 4ee5 823f 12fe 7e3f 1a44 813f
000000c0: 50c6 803f 54cf 813f 61a0 803f a68e 7f3f
000000d0: 0857 803f 86f9 823f 2608 803f 3500 823f
000000e0: a6fb 853f 3a79 803f f67d 833f 26bc 803f
000000f0: 6527 833f 5a6a 813f 2945 803f a6c9 813f
00000100: 92c3 803f f183 803f ed7b 7f3f 0976 813f
00000110: 5220 833f e5a4 7f3f 54c0 7f3f 54f0 813f
00000120: 8e8e 7e3f 5814 823f 9d02 863f b5d9 813f
00000130: 7f46 833f 764d 803f 740f 873f f3e3 7e3f
00000140: a246 803f df8a 803f bbcb 813f 5776 813f
00000150: b283 823f 9d36 843f ee83 7e3f 3a63 843f
00000160: f2cc 7d3f 9fdc 813f 453b 803f 6638 803f
00000170: 4134 7e3f 0f6d 7e3f 7d51 813f 7b38 813f
00000180: c679 843f d4e3 853f 5da0 7f3f 8d39 7f3f
00000190: 2330 803f cc11 803f 710e 813f 8242 813f
000001a0: 478d 843f 4011 843f 62bd 843f ac23 853f
000001b0: 9de1 823f e842 853f 5a20 7f3f 3d2f 823f
000001c0: 03ee 823f 82be 843f a3c4 7e3f a9f2 813f
000001d0: dee1 7f3f 2b43 7f3f 7b67 833f a9ac 843f
000001e0: 5e7f 823f 6529 7f3f e984 873f 8c7d 853f
000001f0: e8e7 843f 72d8 823f 12fd 803f 9342 803f
1.0053484 1.007503 0.99724424 1.0017519 1.0182892 1.0126185 1.0356764 0.9970928
1.0050958 1.0332946 1.0311571 0.9967788 1.0067115 1.010691 0.99861693 1.0237602
1.0010968 0.9913931 1.0215639 1.0399708 1.0451729 0.9991952 1.0345998 0.99963915
1.0455848 0.9941944 0.9940076 1.0112219 1.0383152 1.0023097 0.9947248 1.0305427
0.9944512 1.0121535 1.0268029 0.99338007 0.99280137 0.99562776 1.0035613 1.0138407
1.0270618 1.0689986 1.0349288 1.0414308 1.0440382 1.0226228 0.9960643 1.0098908
1.006052 1.0141397 1.0048944 0.9982704 1.002656 1.0232399 1.0002487 1.0156313
1.0467422 1.0036995 1.0272815 1.0057418 1.0246397 1.0110581 1.0021106 1.0139663
1.0059683 1.0040265 0.9979847 1.0114146 1.0244238 0.99860984 0.99902844 1.0151467
0.9943627 1.0162458 1.0469548 1.0144564 1.0255889 1.0023639 1.0551591 0.9956657
1.0021555 1.004238 1.0140299 1.011424 1.019644 1.0329167 0.9942006 1.0342782
0.99140847 1.0145453 1.0018088 1.0017211 0.99298483 0.9938516 1.0102993 1.0095361
1.0349662 1.0460153 0.9985407 0.9969719 1.001469 1.0005431 1.0082532 1.0098422
1.0355614 1.0317764 1.0370295 1.0401511 1.0225102 1.0411043 0.9965874 1.0170666
1.0228885 1.0370638 0.99518794 1.0152179 0.9995402 0.99711865 1.0265955 1.0365192
1.0195119 0.9967254 1.0587436 1.0428939 1.0383272 1.0222304 1.0077231 1.0020317

layer_norm.bias f4 [128]
00000000: 65c0 033c b907 1cbc 35f4 81bb 9fea 5939
00000010: 0c5e a5bc be23 933c 9781 0dbd 5715 a4bb
00000020: 407c 913b 2b7b c7bc 9229 06bd 80df 523c
00000030: e11a 20bc 9d2e 143c 53d3 a23b e0f5 cd3c
00000040: bf05 3ebb 5dcd 08bc 2a85 b83c 3497 0dbd
00000050: d364 ea3c 5bf4 c33b 7a3a e23c c59e 83b8
00000060: 5285 febc 44ce 05bb 1985 40bc c11f 6e3c
00000070: dbe6 eb3c d6c0 123b 3ba2 a13b e7ac d3bc
00000080: 24e8 8dba 5b3d 4b3c e1b5 bfbc 9293 08bc
00000090: 9080 613b 8b59 9fba 0030 193c 0963 ab3c
000000a0: 7ec1 e33c e9ac 20bd 664d cb3c 60db 023d
000000b0: e783 21bd 8aad c9bc e260 afba 1414 59bc
000000c0: db32 74bc bed9 96bc 6d86 883c 555b f53b
000000d0: 22b5 e23b f2bb ccbc d047 cf39 98fc 87bc
000000e0: 7ec1 263d 2010 31bc a5e9 f0bc de6b ff3b
000000f0: f536 bfbc 47fd 6a3c e723 2fbc 005d a8bc
00000100: dfb4 4fbc 18a1 8b3b 4e33 7a3c 77bd 823c
00000110: 3b49 b83c 8771 f93b 4141 713c 0b50 8a3c
00000120: 3672 263b a006 a33c 5071 3b3d bbf8 8dbc
00000130: d877 e23c 074e 77bc 0d63 23bd 63f3 853a
00000140: b78a 593c b2a9 11bc 76d0 933c 4bc0 5dbc
00000150: a0c9 df3c c1d5 06bd d833 6abc f5d9 e43c
00000160: 83e9 c0ba 0c7f c3bc dbfc 973c 2971 2fbc
00000170: d9d5 463b 0979 263b 793a 723c 5fa1 6dbc
00000180: 46c3 d63c fd1d e03c 5cfe 40ba a6a5 5e3b
00000190: 4420 b83b ac05 993b a097 81bc a127 483c
000001a0: 0033 fa3c 1715 01bd 7a5b f4bc 6fd4 f33c
000001b0: c025 b2bc 8619 023d 786a f4ba 01b9 a9bc
000001c0: c50d d1bc 8062 103d 18d4 063c c111 6b3c
000001d0: bea0 3abb 1bc5 5a3c 1609 d63c 5082 ec3c
000001e0: ab50 b2bc 82b7 6bbb 778c 2cbd be78 f3bc
000001f0: 3cb2 df3c 70f6 ba3c 8878 873c 29a4 963c
0.008041476 -0.009523326 -0.0039658793 0.00020782136 -0.020186447 0.01796138 -0.034547415 -0.0050074267
0.0044398606 -0.024350723 -0.03275449 0.012870669 -0.009772033 0.009044317 0.0049690395 0.025141656
-0.0028995124 -0.008349744 0.022524435 -0.034568027 0.02861253 0.005980057 0.027615774 -6.27614e-05
-0.031069431 -0.0020417133 -0.011750483 0.014533938 0.028796604 0.0022392771 0.0049326695 -0.025839282
-0.001082663 0.012404765 -0.023402156 -0.008335965 0.0034408905 -0.0012157423 0.009349823 0.020921247
0.027802225 -0.0392274 0.02481718 0.031947494 -0.039432433 -0.024618883 -0.0013380314 -0.013249416
-0.014904703 -0.018414374 0.016665662 0.0074876943 0.0069185654 -0.024991963 0.0003953562 -0.016599938
0.040711872 -0.010807067 -0.029408285 0.007794841 -0.023341635 0.014342613 -0.010689712 -0.020552158
-0.0126774 0.004261147 0.015271021 0.015959485 0.022495857 0.0076124105 0.01472503 0.01688387
0.0025397665 0.01990062 0.04576236 -0.017330518 0.027645037 -0.015094287 -0.039889384 0.001021963
0.013277701 -0.008890556 0.018043738 -0.013534616 0.027317822 -0.032918695 -0.014294587 0.027935961
-0.0014718029 -0.023864292 0.018553188 -0.010708132 0.0030339865 0.0025401732 0.014784449 -0.014503806
0.02621616 0.02735805 -0.0007362121 0.0033973246 0.0056190807 0.0046698656 -0.01581937 0.0122164795
0.030541897 -0.031514253 -0.029828776 0.029764382 -0.021746516 0.031762622 -0.0018647453 -0.0207181
-0.025519261 0.035250187 0.008229278 0.014347495 -0.0028477157 0.013352658 0.02612738 0.028870732
-0.021766981 -0.0035967533 -0.042126145 -0.02972066 0.027306668 0.022822589 0.016536966 0.018388825

actor_fc.0.weight f4 [128, 128]
00000000: be59 c1bc cfb1 343d 3e64 013d 57bc babb
00000010: 5843 873c 24ef b73c 7c84 f6bb fb88 083d
00000020: b23f 3cbd bf97 8ebd dc3a 533d a660 5bbd
00000030: 2bc3 0bbd d63d b93c dca1 a63d d330 153d
00000040: de41 22bd 3301 42bd b643 863d 9cd0 56bd
00000050: 1d96 8cbd fa26 383c 41a5 a13d 72cc 5dbc
00000060: 329d 113c 7ffa 99bd 93db 02bd c255 d7bb
00000070: cacd 703d e2eb 04bd f004 b4bd 5f5e 83bd
00000080: 204c a93d cd03 253d 55cc 06bd 4d0f a9bd
00000090: ea21 74bc f5af c9bd a4aa 71bd 8f34 353c
000000a0: 1396 22bd 44aa 4dba 38a1 4c3d 4f3f 953d
000000b0: 76f0 88bd 666c 78bd 63a7 ab3d 1d83 653c
000000c0: 70c3 c93c 3876 c6bd 2436 ad3d d98f 3abd
000000d0: 6fb5 a13d f260 5b3d 4d32 82bd 17f1 a3bd
000000e0: e77a 8c3b 1588 403d c1a0 20bc 5b35 e23c
000000f0: 001c f639 fd0a 7abc d339 263d 4bbd 8e3a
00000100: 8118 d43b 3497 43bd a4b6 b53c 476f 6c3d
00000110: cacf db3c ad8d 1b3d 96ef 0abd fd42 c83c
00000120: 5dba 86bd 6419 8a3d 5e52 473d ff1a 233d
00000130: 5d13 b73c 5f9b 55bc 1999 a53d c52a 81bc
00000140: f70d 92bd d998 83bd 839a 7f3c 69b2 5cbd
00000150: 2965 9bbc 50a1 c5bd 8667 adbc 922e 79bb
00000160: 027c 5a3d 9658 4e3d 8e35 1b3d 3007 d6bc
00000170: 3a02 6b3d 873c 273d be85 b83c 45ac 72bd
00000180: 959e 723d b2de 6c3c 7553 84bd c812 4c3c
00000190: c042 c73b 530a 4ebd 0e46 5ebd 4aa9 8dbc
000001a0: 465f 2c3d cd52 92bd cd59 babd bf28 15bd
000001b0: ef3e 1fbd 9ac3 34bd 7c9d 9439 4e46 133d
000001c0: 19be 7cbd ab6b 19bc d648 b53d 071e 5b3d
000001d0: b9cf da3d c93b 25bc f74c 0dbc 51e8 94bd
000001e0: 6720 583d 8b58 91bd e9d9 01bd ad69 a1bd
000001f0: 0e85 063d 4b47 7e3d e702 89bd ed00 84bd
00000200: aa3d 443d 201b 093d 3b93 7bbd e978 90bd
00000210: 3131 de3c d560 8a3d acba 043d 6c14 eebc
00000220: 5e26 38bd 6ffa 03ba 2f7f 13bd 0187 7ebd
00000230: fd96 0e3b 491f 23bd 51c8 03b9 d400 32bc
00000240: 4271 00bd 86e2 9d3d 6ad5 c8bd 0d5d 0abd
00000250: 1359 c6bc 96d5 993d d237 30bc 1674 0cbd
00000260: 212e 3f3d 1a40 20bd 764c 4fbc af81 1f3d
00000270: 33ea 333d bf79 dcbc a222 85bd 0107 bf3d
00000280: c6ac 6dbd c27d 713c 2d1e 71bd bdbf a9bd
00000290: 0e41 393c 4007 cd3b dc66 b93c 4b8b 8b3d
000002a0: 9482 f93b 762a 603d 3934 94bd e721 0dbd
000002b0: 283f 493d c4da 7f3d a5f0 a1bd 6a47 5c3d
000002c0: 5549 8d3d 12a2 933d ef2a 8f39 bf0e 8e3d
000002d0: e892 383d af75 d73d 777c 913d 8cc0 80bb
000002e0: f35d 693d a6c5 233d 8840 a43d b064 9c3d
000002f0: 67b9 943d 9ab5 89bd b6bf 1b3c 16bd b83c
00000300: b0de b93d b300 62bd 0f01 8abd 872b 5e3c
00000310: c942 343d 3379 9abd 3181 0dbd 150d d9bd
00000320: 5eb5 aebd 4a3c c2bd 4eb5 04bd e985 283d
00000330: 8043 0dbd c58b fbbc 8c15 ad3d 2642 1abd
00000340: 7d06 883d c323 7fbd 7c57 f4bc 4079 953d
00000350: 6fb9 eabd 08c8 5ebd 63b6 9fbd 0cf8 663d
00000360: 888f 863c bb3f 25bd 7687 b3bc 4c98 98bc
00000370: d1bd 143d b7be a33d 40af 66bc 185c 3ebd
00000380: 223c 8dbd 3049 f1bd b1d0 923d 2184 9ebd
00000390: 4b8f 95bd cae7 9c3d 509b f53b 1fb1 afbd
000003a0: 0ecf a5bd 6894 c13c b48d 213d 5ee6 7abd
000003b0: b127 58bd 8982 80bd 79dd 91bd f9cf 573d
000003c0: a1e3 84bb 5d5b b8bd a779 7d3c b63c a8bd
000003d0: 9840 293d acfe 973c c9fd 9cbd 0f52 13bc
000003e0: 35d0 d23c cd41 8d3b 2193 56bd 2a6e 5f3d
000003f0: 8388 49bd cdbb 83bd 55fd 87bd 7497 90bd
-0.023602363 0.044114884 0.03158974 -0.0056987214 0.016511604 0.022452898 -0.0075231176 0.03333376
-0.045959182 -0.06962537 0.051569805 -0.053558968 -0.034121674 0.022612493 0.08136341 0.036423516
-0.039613597 -0.047364425 0.065558836 -0.05244504 -0.06864569 0.0112397615 0.07892848 -0.013537513
0.008887576 -0.075184815 -0.031947684 -0.0065715024 0.058790006 -0.032451518 -0.08790004 -0.06414484
0.08266473 0.040286828 -0.03290971 -0.082548715 -0.014900664 -0.09848014 -0.059000626 0.011059894
-0.039693903 -0.0007845501 0.049958438 0.07287466 -0.06686489 -0.06065025 0.08381536 0.014008311
0.024629325 -0.09690517 0.08457592 -0.04554734 0.07895934 0.05355925 -0.0635725 -0.080049686
0.004287112 0.047004778 -0.009803952 0.027613332 0.00046941638 -0.015261409 0.04058249 0.0010890154
0.0064726477 -0.04775162 0.022181816 0.05772331 0.02683248 0.03797691 -0.033919893 0.024446005
-0.06578515 0.06743124 0.048662536 0.039820667 0.0223481 -0.013037532 0.08085842 -0.015767464
-0.0713157 -0.06425638 0.015600803 -0.053881083 -0.018969135 -0.096499085 -0.021167528 -0.0038022143
0.05334092 0.05037745 0.03789287 -0.026126474 0.05737517 0.040829208 0.02252471 -0.05924632
0.059233267 0.014457392 -0.06461231 0.01245565 0.0060809553 -0.050302815 -0.054266028 -0.017292637
0.042083047 -0.07144699 -0.090991594 -0.03641581 -0.038878378 -0.044131853 0.00028346095 0.03595572
-0.06170473 -0.009364049 0.08851783 0.053495433 0.10684151 -0.010085055 -0.008624307 -0.07270873
0.052765276 -0.07096966 -0.031701956 -0.07881484 0.032841735 0.06207971 -0.06690007 -0.06445489
0.04791037 0.033473134 -0.061419707 -0.07054312 0.027123066 0.067567505 0.032404587 -0.029062472
-0.044958465 -0.0005034571 -0.036009964 -0.06214047 0.0021757476 -0.039824758 -0.00012567757 -0.010864455
-0.03135801 0.077092215 -0.098063305 -0.033780146 -0.024212396 0.075114414 -0.010755496 -0.034290396
0.04667485 -0.039123632 -0.012652507 0.038942035 0.04392452 -0.026913522 -0.06500746 0.09327508
-0.058026098 0.014739456 -0.05886667 -0.08288524 0.011307014 0.006256968 0.022632055 0.068136774
0.007614443 0.054727994 -0.07236523 -0.03445616 0.049132496 0.06246449 -0.079072274 0.053779043
0.068987526 0.07208647 0.00027307073 0.06936406 0.045061976 0.10520493 0.07103818 -0.0039292034
0.056974363 0.039983414 0.08020121 0.07636392 0.07261925 -0.06724091 0.009506157 0.0225511
0.090756774 -0.055176448 -0.06738483 0.013560182 0.044009004 -0.07542648 -0.034547035 -0.10598198
-0.08530687 -0.094841555 -0.032399468 0.04114333 -0.0344882 -0.030706296 0.08451375 -0.03766074
0.066418625 -0.062289964 -0.029826872 0.07298517 -0.1146115 -0.054389983 -0.077984594 0.0563889
0.016425863 -0.04034398 -0.021915179 -0.018627308 0.036313836 0.0799536 -0.014079869 -0.046474546
-0.06896235 -0.117815375 0.07168711 -0.07740045 -0.073027216 0.07661398 0.0074953213 -0.08578705
-0.08096133 0.023630336 0.03944178 -0.06125485 -0.052772228 -0.062748976 -0.07122321 0.052688573
-0.004055456 -0.09001801 0.015470899 -0.08214705 0.041321367 0.018554054 -0.07665593 -0.008991732
0.025734046 0.0043108226 -0.052386407 0.05454842 -0.049202453 -0.064323045 -0.06640116 -0.070601374

actor_fc.0.bias f4 [128]
00000000: b9e3 99bc b45e 74bd a358 96bc d0db 6abd
00000010: ff06 a03d f644 9cbd 9f9a b6bc ccf1 113d
00000020: b6ae 2a3d 2735 6e3d e7c5 b83d fd41 b83d
00000030: 1009 6abd 27ff 4dbd 6eb9 8f3d bc14 9d3d
00000040: deb8 35bb 9bb9 813d c4c5 94bd 72c0 cf3d
00000050: 1931 e93c 9808 76bc ab40 2a3c d7f4 ccbc
00000060: 023d 91bd 9229 02bd 4a72 973c a550 013c
00000070: 1b42 cdbd 41e6 3c3d ef24 333b 111e 4e3d
00000080: b77f 143d 4ea2 c33d 0f34 933d e928 c2bc
00000090: bbd7 47bb 882f 6c3d d5c5 753d ae6c 3c3c
000000a0: 4f1d 7ebc 9f95 ba3d 40d1 873d f7d5 db3c
000000b0: e726 963c 2926 5abd fcc4 afbd 425e c03d
000000c0: 2bf4 87bd 67c6 973d 8511 5fbc 6654 f8bc
000000d0: d888 d83c e4a8 b63d 271e d2bd 081a 7b3d
000000e0: 3ed3 78bd 131b 7ebd 9204 82bc dd9a 7cbc
000000f0: 6f85 253d 0844 bb3d fec6 1e3d 3124 3ebd
00000100: 560d 353c edc2 713d 6181 1abd 386c 9b3d
00000110: b0c9 b23d 335d bdbc 2e70 90bd 1076 b63d
00000120: 2b6d c5bd f9ee 753d b1dd 66bd 26c4 c7bd
00000130: 8a5f 0f3c d4d1 82bd 0115 0cbd 0a6e ae3d
00000140: b74e 983d 1f1c b2bd 5d89 01bd caf5 463d
00000150: c0a3 e33b b042 85bd 6e31 1a3d c1e2 dabc
00000160: a920 1c3d 0556 c9bc e2dd c03d 6c79 b0bd
00000170: 4be0 a9bd c8bd 663d 1e6e 4ebd 46d9 cdbc
00000180: cf95 04bc 2058 99bc a4b9 8dbc 2873 8cbd
00000190: 2003 db3d 96e7 df3c 3e2a a03d 9fa0 34bc
000001a0: 8a43 16bd 017c 2ebd 08d3 2a3c d5da 6fbd
000001b0: faa8 893d 0d68 64bd 569e 96bd a102 fabc
000001c0: bb4a 3cbd 4270 2dbd fd87 b73d 6aee 37bd
000001d0: b8fc 583d 745f a7bc 67c6 75bd 6ff7 33bd
000001e0: c97c 8bbc 4f60 0cbd 1932 54bd 0ba6 69bd
000001f0: 1f01 bf3d 11bd 93bd 0ff8 6d3c 0f1f af3d
-0.018785344 -0.05966063 -0.018352812 -0.057338536 0.078138344 -0.07630341 -0.022290526 0.035630986
0.041670524 0.05815616 0.09022122 0.08996961 -0.05713755 -0.05029216 0.0701779 0.076699704
-0.0027728598 0.063342296 -0.07264283 0.10144128 0.028465794 -0.015016697 0.010391395 -0.025019092
-0.070917144 -0.031777926 0.018487114 0.007892762 -0.10022374 0.046118025 0.0027335247 0.050321642
0.03625461 0.095524415 0.07187664 -0.023701148 -0.0030493576 0.057662517 0.06000312 0.011500521
-0.015509917 0.09110569 0.06631708 0.026835425 0.018329097 -0.05325905 -0.08582494 0.09392978
-0.06638368 0.07410889 -0.013615017 -0.030313682 0.02643244 0.08918932 -0.10259657 0.061304122
-0.06074833 -0.06203754 -0.01587132 -0.015417782 0.040410455 0.09143835 0.038763992 -0.046421234
0.011050543 0.059023786 -0.03772104 0.075890005 0.08729875 -0.02311573 -0.070526466 0.089092374
-0.09639963 0.060042355 -0.056363765 -0.09754209 0.008750806 -0.06387678 -0.03419972 0.08517082
0.07436889 -0.0869677 -0.03162514 0.048574246 0.0069470108 -0.0650686 0.037644796 -0.026719453
0.038117085 -0.02457715 0.09417321 -0.086169094 -0.082947336 0.056333333 -0.050397985 -0.025128018
-0.008092358 -0.01871878 -0.017300434 -0.06857902 0.106939554 0.027332108 0.07820557 -0.011024623
-0.036685504 -0.042598728 0.01042629 -0.058558304 0.06721683 -0.055763293 -0.07354419 -0.030518832
-0.045969706 -0.042343386 0.089614846 -0.044905104 0.052975386 -0.020431258 -0.060003664 -0.043937143
-0.017027276 -0.034271535 -0.05180559 -0.057043117 0.09326386 -0.07213796 0.014524474 0.08550846
